movie_extractor.onnx (onnx, 227434 bytes, 3 tensors)

conv1.bias f4 [64]
0.04254774 0.03235747 0.017799351 0.068118714 0.049680367 0.035848334 -0.009276993 -0.0081547275
-0.027839549 -0.060939834 0.06627631 -0.03551124 0.013090393 -0.035985965 0.05575876 0.012070402
0.055185545 -0.052311398 0.037858807 0.021946473 -0.017070614 -0.068402015 -0.02460811 0.065073565
0.0114299245 0.032556433 0.060244553 -0.041241407 -0.025863038 0.046733167 -0.072004385 -0.014685279
-0.06653415 0.012087059 -0.03159779 0.028541286 0.05434375 -0.030313695 -0.029081132 0.045528267
-0.0117848 -0.049121346 -0.002300477 0.0047995276 0.029293416 0.01259339 -0.0055749007 -0.052291177
-0.03622959 -0.023538394 0.046004467 -0.02871514 0.045015648 0.077250004 -0.054261837 -0.023658082
-0.05300925 -0.055575438 0.024769133 0.042360418 -0.05039409 0.040641885 -0.040397458 -0.019284163
00000000: 8a46 2e3d 4489 043d f2cf 913c d381 8b3d
00000010: a47d 4b3d b4d5 123d 87fe 17bc 689b 05bc
00000020: c40f e4bc 0c9c 79bd e0bb 873d 3c74 11bd
00000030: 1679 563c 0566 13bd 4c63 643d efc2 453c
00000040: 3d0a 623d 7a44 56bd d611 1b3d 17c9 b33c
00000050: acd7 8bbc 5b16 8cbd f296 c9bc 4a45 853d
00000060: 9444 3b3c e559 053d fec2 763d c0ec 28bd
00000070: b9de d3bc 476b 3f3d 0977 93bd 869a 70bc
00000080: 0e43 88bd cd08 463c af6c 01bd 6acf e93c
00000090: 8d97 5e3d 6d54 f8bc 8e3b eebc d97b 3a3d
000000a0: 0915 41bc 7733 49bd 99c3 16bb 5b45 9d3b
000000b0: bff8 ef3c 8254 4e3c a8ad b6bb 462f 56bd
000000c0: 7b65 14bd 97d3 c0bc 2e6f 3c3d 033c ebbc
000000d0: 5462 383d 4035 9e3d a941 5ebd 98ce c1bc
000000e0: 3a20 59bd 12a3 63bd a3e8 ca3c 1e82 2d3d
000000f0: 096a 4ebd 1b78 263d ce77 25bd d2f9 9dbc

norm1.weight f4 [64]
0.99837834 1.0021913 0.99947166 1.0029049 1.0034554 0.993298 1.0013013 1.0150764
1.0050755 1.0049206 0.99115187 1.0071102 0.99577224 0.995754 1.0016414 1.0077453
1.005067 0.99096805 0.99690354 0.9952045 1.0110034 1.0047747 0.99349314 0.994814
0.99269074 0.9970711 1.0051677 1.0025071 0.9967586 0.9918577 1.0084368 0.99323905
0.997172 1.0003227 0.998002 1.0119499 0.99531895 0.9989707 1.0040909 0.9919241
0.99856645 0.99950516 1.0167638 0.9992907 1.0042281 0.9907532 1.005208 1.0046498
0.9860679 0.9945455 0.99515164 1.00711 0.9987168 0.9946376 1.0132321 0.99618465
1.0036055 1.0038636 0.98965704 1.0039921 0.99381554 1.0059543 0.9944715 1.0008265
00000000: b995 7f3f ce47 803f 60dd 7f3f 305f 803f
00000010: 3a71 803f c748 7e3f a42a 803f 06ee 813f
00000020: 50a6 803f 3da1 803f 21bc 7d3f fde8 803f
00000030: eeea 7e3f bce9 7e3f c935 803f ccfd 803f
00000040: 09a6 803f 15b0 7d3f 1235 7f3f b9c5 7e3f
00000050: 8f68 813f 759c 803f 9155 7e3f 21ac 7e3f
00000060: fb20 7e3f 0d40 7f3f 56a9 803f 2752 803f
00000070: 922b 7f3f 63ea 7d3f 7514 813f ea44 7e3f
00000080: aa46 7f3f 930a 803f 0f7d 7f3f 9387 813f
00000090: 39cd 7e3f 8bbc 7f3f 0d86 803f bdee 7d3f
000000a0: 0da2 7f3f 92df 7f3f 5125 823f 84d1 7f3f
000000b0: 8c8a 803f 00a2 7d3f a8aa 803f 5d98 803f
000000c0: f26e 7c3f 899a 7e3f 42c2 7e3f fbe8 803f
000000d0: e7ab 7f3f 92a0 7e3f 97b1 813f f505 7f3f
000000e0: 2576 803f 9a7e 803f 2a5a 7d3f d082 803f
000000f0: b26a 7e3f 1cc3 803f af95 7e3f 151b 803f

norm1.bias f4 [64]
-0.0003302577 -0.0006910153 0.004672072 -0.0052846414 0.0018986095 -0.010401029 0.0060373717 -0.0057146726
2.183094e-05 -0.0030213366 -0.004215503 -0.0011310818 -0.0030750714 0.00474348 0.0011173087 -0.0036879801
0.004226834 -0.0052720783 -0.0056505715 -0.005531255 -0.0018286741 -0.0032817766 0.005968814 -0.0054973825
0.008263236 -0.006476683 0.003500379 -0.0009553768 0.005326976 -0.011118068 -0.005168142 0.0060427217
0.0037539296 0.0028287657 0.0043497416 0.0026294335 -0.004979463 0.0030951372 -0.00192735 -0.007713014
0.004922116 0.0072220014 -0.0022099288 0.0070971716 0.0025920083 0.0043884735 -0.00318111 -0.0007982636
0.007046676 0.003325506 -0.0038906168 -0.0013007688 -0.0036034104 -0.000432898 0.007525546 0.0035584774
-0.0023491504 0.0008180904 0.0047282865 -0.005183425 0.007043738 -0.00029845454 0.0077970587 0.0008804663
00000000: 7026 adb9 4025 35ba 2e18 993b c92a adbb
00000010: c3da f83a 1469 2abc 25d5 c53b 2642 bbbb
00000020: 9621 b737 9e01 46bb 3422 8abb cf40 94ba
00000030: 2387 49bb 326f 9b3b a972 923a 0ab2 71bb
00000040: 4181 8a3b 66c1 acbb 6e28 b9bb 883f b5bb
00000050: 1fb0 efba 1313 57bb 0a96 c33b 6323 b4bb
00000060: 8662 073c 5b3a d4bb 9d66 653b 4072 7aba
00000070: ea8d ae3b 8f28 36bc 8459 a9bb 0602 c63b
00000080: 7d04 763b d062 393b 4788 8e3b 9352 2c3b
00000090: c32a a3bb c9d7 4a3b 229f fcba 73bd fcbb
000000a0: b449 a13b 8aa6 ec3b 74d4 10bb 648f e83b
000000b0: afde 293b 2fcd 8f3b 2b7a 50bb 9042 51ba
000000c0: cde7 e63b bcf0 593b b8f9 7ebb 8f7e aaba
000000d0: 3227 6cbb 96f6 e2b9 db98 f63b 5835 693b
000000e0: 34f4 19bb 1e75 563a beef 9a3b b8d9 a9bb
000000f0: 28cf e63b e479 9cb9 787e ff3b 18cf 663a
