movie_extractor.onnx (onnx, 126516 bytes, 3 tensors)

conv1.bias f4 [64]
00000000: ece8 843d 66cb eabb 45c9 30bd 3622 a0bd
00000010: c8d3 afbc 0409 143d 65e3 30bd c253 093d
00000020: 7f4e 803d eaec 443d b71c 7abb 9f23 0cbc
00000030: 3362 ec3c 1126 3c3d fefa 73bb 7018 05bd
00000040: 312c a1bd 37d6 933d c404 9dbd 54e1 cc3b
00000050: 60a1 b53c 81c5 ee3c a471 7c3d 0432 b13b
00000060: 6569 403d 36a2 703d 9e44 1b3d 5014 74bb
00000070: 79c1 453d ccb8 99bd b4a5 5e3d 850d 66bd
00000080: e364 2ebc b5bb f93c fa64 70bc 35e0 1a3d
00000090: 30e5 f9bc dee9 2fbd 76f0 983d 0446 163d
000000a0: 0674 babb 52b4 953a d2bc 2bbd e368 b1bc
000000b0: d56e efbb b745 913b 977f cd3c b85b a33c
000000c0: f2cb d43c fc5b 34bd 3cb4 443c 7bd9 0dbb
000000d0: 3bdc 523c 1049 eabc 24d1 1ebb c558 2e3d
000000e0: bd5a 14bd 60f2 d83c 42ba 183c 12f3 f4bb
000000f0: 14eb 7b3c 1dca 88bc 254c c53c f8a6 9abc
0.06489739 -0.0071653603 -0.043160696 -0.07819025 -0.02146329 0.03614141 -0.04318561 0.033527143
0.06264972 0.0480775 -0.0038164088 -0.008553415 0.028855419 0.04593474 -0.003722846 -0.03249401
-0.07869757 0.072185926 -0.076669246 0.006252447 0.022171676 0.029146912 0.061631814 0.0054075737
0.046975512 0.058748446 0.037907235 -0.0037243553 0.048280213 -0.0750595 0.054357246 -0.056165237
-0.01064417 0.030485013 -0.014672512 0.037811477 -0.030504793 -0.042947643 0.07467739 0.036687866
-0.0056901006 0.0011421537 -0.04192812 -0.02165646 -0.0073069134 0.0044333595 0.025085254 0.019941196
0.025976155 -0.044033036 0.012005862 -0.002164452 0.01286989 -0.028599292 -0.0024233544 0.042565126
-0.036219347 0.02648276 0.009321751 -0.0074752653 0.015375871 -0.016697938 0.02408416 -0.018878445

norm1.weight f4 [64]
00000000: 2b50 8b3f 01c4 883f 7c6e 8b3f 05bf 8f3f
00000010: 9705 8f3f 8042 8e3f 5df0 863f e0c9 883f
00000020: 25f0 8c3f caa3 8e3f f0fe 9e3f 09c7 903f
00000030: c7ce 853f ab7c 8b3f e623 833f 4a28 8e3f
00000040: 93f7 913f cb34 8b3f 91a9 903f b806 8c3f
00000050: 395c 8a3f db94 8d3f 06a2 863f 038e 893f
00000060: 8fc1 893f bb45 883f 72be 883f 947b 8e3f
00000070: 036d 903f 7d58 933f 3863 8d3f fe29 8a3f
00000080: 41d7 883f e53d 913f 3287 883f 646c 883f
00000090: d1b5 8e3f e7ea 923f 7714 8b3f 8bf9 893f
000000a0: c841 933f 5a5a 8d3f 22e8 883f c939 883f
000000b0: 01b9 903f 2d8a 8e3f df68 8a3f 751e 903f
000000c0: 0692 993f 5114 843f 074c 863f c90e 8a3f
000000d0: b1dd 943f ba13 893f d680 923f e319 853f
000000e0: d87c 8b3f 7ea2 843f 91bd 883f 8bb7 843f
000000f0: 77f1 873f 5ad1 863f 5435 8c3f a2b3 8c3f
1.088384 1.0684816 1.0893092 1.123017 1.1173581 1.1114044 1.0542103 1.0686607
1.1010786 1.1143734 1.2421551 1.1310741 1.0453728 1.0897421 1.024533 1.1106045
1.1403679 1.0875486 1.1301748 1.093955 1.0809394 1.1061052 1.0518196 1.0746464
1.0762194 1.064628 1.0683119 1.1131463 1.1283268 1.151138 1.1045904 1.0794065
1.069069 1.1347014 1.0666258 1.0658078 1.1149236 1.1477937 1.086562 1.077928
1.150445 1.1043198 1.0695841 1.0642635 1.1306459 1.1135918 1.0813254 1.1259295
1.1997688 1.03187 1.0491952 1.0785762 1.1630155 1.0709145 1.1445568 1.0398525
1.0897474 1.0362089 1.0682851 1.0368513 1.0620564 1.0532639 1.0953774 1.099232

norm1.bias f4 [64]
00000000: 3e26 2d3c dbda 863d 2055 f13c 3326 b2bc
00000010: 3ac1 91bc 0b95 23bc 3e0b 983c d5c0 98bd
00000020: f2b5 97bc d945 8f3c 58ac 033d f428 153d
00000030: aa89 93bc bafb 883c 1af0 f53c 887b 913c
00000040: d24f 38bd 203c d63c 6139 a1bc 4f9a 513d
00000050: c7fd 84bc 9b51 57bb 1d88 46bc ffe7 24bd
00000060: c007 a63b 859c f8bc 2b3a 323c 60e2 6f3d
00000070: 0d42 62bd 387b f5bc 9967 79bd 9183 88bb
00000080: a06e d53c a4a2 a6bc 898b 1b3d b6de 40bc
00000090: 2ea7 fe3a 9ebd bbbb e1ac 573c 922f 8abc
000000a0: 0dc1 113d b38f 5c3d c9ff 2b3d fcff 853c
000000b0: 1037 6d3d 5500 033d fdc6 eebc f9e5 a23d
000000c0: 6df6 cfbc 7901 84bb 57cd 233c 845b 5e3d
000000d0: 337e 5f3c f661 db3b a77e 8c3d ba66 f9bc
000000e0: 22a3 fd3c d4c1 18bd 4568 39bd 9418 323d
000000f0: 8792 75bd 5029 40ba 55e9 63bc 15e2 cd3c
0.0105682 0.06584712 0.029459536 -0.02174673 -0.017792333 -0.009984265 0.018560048 -0.07458655
-0.018519375 0.01748936 0.03214678 0.03641601 -0.01800998 0.016721595 0.030021716 0.0177591
-0.044997998 0.026151717 -0.01968068 0.05117255 -0.016234292 -0.0032855037 -0.012117413 -0.04026031
0.005066842 -0.030348072 0.010878126 0.058565497 -0.055238772 -0.029965982 -0.060889814 -0.0041660746
0.026053727 -0.020341225 0.037974868 -0.011771848 0.0019428486 -0.0057293912 0.013163776 -0.016868386
0.0355845 0.05384798 0.041991983 0.016357414 0.05791384 0.03198274 -0.02914762 0.0795402
-0.02538606 -0.004028496 0.009997687 0.054286495 0.013640928 0.0066950275 0.068600945 -0.030444492
0.030961577 -0.037294224 -0.045265455 0.04348047 -0.059954192 -0.0007330375 -0.013910611 0.025132218
