movie_extractor.onnx (onnx, 115734 bytes, 3 tensors)

conv1.bias f4 [64]
-0.0016476098 -0.07297732 -0.031002969 -0.026300674 -0.029372668 -0.050397195 0.025493836 -0.07066615
-0.0019371248 -0.0063574095 -0.020007852 -0.011195465 0.041470964 0.00037484206 0.0102477865 -0.028602712
0.056465525 -0.033444576 -0.031856067 -0.0052338494 -0.010642133 -0.004675708 -0.03639598 0.012835793
-0.018184919 -0.096121535 -0.006752059 0.022847217 0.039657716 -0.0061518806 -0.0045740926 0.026459351
0.046690196 0.007256909 -0.04092951 -0.015258382 0.041540485 0.008448052 0.04894001 0.043919645
-0.015994119 0.061769377 0.026310036 0.032049336 0.054764748 -0.0286422 0.02921456 -0.05939735
-0.001453563 -0.039430212 0.015698317 0.075205624 -0.0041990564 0.0797284 0.009702782 -0.0018461413
-0.010118907 -0.000285753 -0.00055255886 0.0021482168 0.057758816 0.016238816 -0.035886694 0.06445567
00000000: 9cf4 d7ba 2275 95bd f0f9 fdbc 8374 d7bc
00000010: f39e f0bc 4a6d 4ebd 73d8 d03c 6ab9 90bd
00000020: 1fe7 fdba d151 d0bb 82e7 a3bc 2f6d 37bc
00000030: 75dd 293d 7386 c439 55e6 273c 3c50 eabc
00000040: 6548 673d 2efd 08bd 827b 02bd b680 abbb
00000050: 575c 2ebc ae36 99bb f313 15bd 384d 523c
00000060: 8af8 94bc 5edb c4bd 6040 ddbb 162a bb3c
00000070: 2170 223d b795 c9bb 45e2 95bb 48c1 d83c
00000080: 383e 3f3d 5dcb ed3b b4a5 27bd 4bfe 79bc
00000090: 5b26 2a3d b369 0a3c 5275 483d 16e5 333d
000000a0: 1906 83bc e301 7d3d 2588 d73c 2a46 033d
000000b0: 0051 603d 0ca3 eabc 5f53 ef3c a34a 73bd
000000c0: 7b85 beba 9381 21bd c299 803c 6805 9a3d
000000d0: 3d98 89bb a548 a33d 6bf8 1e3c 39fa f1ba
000000e0: c6c9 25bc 1ed1 95b9 99d9 10ba 19c9 0c3b
000000f0: 8294 6c3d 4407 853c edfd 12bd 5601 843d

norm1.weight f4 [64]
1.0345043 1.0594441 1.0446327 1.0325528 1.0565369 1.0683565 1.0180784 1.0517204
1.0957044 1.0539976 1.0597217 1.061492 1.0333495 1.0557988 1.0257993 1.0246204
1.0502898 1.0475203 1.0426471 1.0363182 1.0655278 1.0514827 1.0594449 1.0383635
1.0586556 1.0475569 1.0618898 1.0399876 1.0570064 1.0321809 1.064978 1.0036397
1.0577636 1.0699649 1.0341961 1.0499684 1.007718 1.0497764 1.0505538 1.0421616
1.0192802 1.0142856 1.0542909 1.0341718 1.0097765 1.0293117 1.0730424 1.0520236
1.0772285 1.0450822 1.0354838 1.0152724 1.0384458 1.0153756 1.037615 1.055792
1.0911146 1.1090269 1.0288264 1.0399189 1.0552785 1.0499588 1.071235 1.023402
00000000: a36a 843f dd9b 873f 86b6 853f b12a 843f
00000010: 9a3c 873f e8bf 883f 6550 823f c69e 863f
00000020: 0b40 8c3f 65e9 863f f6a4 873f f8de 873f
00000030: cc44 843f 6a24 873f 644d 833f c326 833f
00000040: e56f 863f 2515 863f 7675 853f 13a6 843f
00000050: 3763 883f fc96 863f e49b 873f 18e9 843f
00000060: 0782 873f 5816 863f 01ec 873f 501e 853f
00000070: fc4b 873f 811e 843f 3351 883f 4477 803f
00000080: cc64 873f 9cf4 883f 8a60 843f 5d65 863f
00000090: e7fc 803f 135f 863f 8c78 863f 8d65 853f
000000a0: c677 823f 1cd4 813f 01f3 863f be5f 843f
000000b0: 5b40 813f 7cc0 833f 7459 893f b6a8 863f
000000c0: a0e2 893f 41c5 853f bc8a 843f 72f4 813f
000000d0: cbeb 843f d4f7 813f 91d0 843f 3124 873f
000000e0: a5a9 8b3f 98f4 8d3f 95b0 833f 101c 853f
000000f0: 5e13 873f 0d65 863f 3a1e 893f d6fe 823f

norm1.bias f4 [64]
-0.010535746 -0.012121587 0.013064032 0.009846654 0.0034825122 -0.0023580145 0.0032121986 -0.015633563
0.016147574 0.017755648 -0.0039068395 -0.004368104 -0.0173315 -0.013543073 0.008434993 0.0013094997
-0.0027186042 -0.002947348 -0.00059281307 -0.015096561 0.0032067103 0.009413824 -0.0017149246 0.019092737
0.0012822361 -0.011057394 -0.010273427 -0.013903324 -0.023876794 0.0043433313 0.012926865 0.0145630585
-0.025571024 0.026171576 0.011035382 0.01026595 -0.003694694 -0.009366387 -0.014267255 0.009600632
0.008977884 -0.0045025116 -0.013704453 0.009900253 0.0022973714 -9.868177e-05 0.006710429 -0.0037306128
0.01667442 -0.013298324 -0.019610109 0.0012572934 0.029248998 -0.0060912296 -0.01648967 0.012657373
0.037376553 0.01335787 0.0066289287 0.018977646 0.008659074 0.0012696635 -0.004853322 -0.0033793778
00000000: 1f9e 2cbc 9f99 46bc 860a 563c dc53 213c
00000010: dc3a 643b eb88 1abb c083 523b f511 80bc
00000020: eb47 843c 4b74 913c f204 80bb 5022 8fbb
00000030: cafa 8dbc c4e3 5dbc ed32 0a3c 85a3 ab3a
00000040: 9c2a 32bb 4b28 41bb 0367 1bba 9157 77bc
00000050: ac27 523b 713c 1a3c 52c7 e0ba 5f68 9c3c
00000060: b410 a83a 122a 35bc e051 28bc c4ca 63bc
00000070: 4499 c3bc 8152 8e3b 34cb 533c e599 6e3c
00000080: 537a d1bc c665 d63c bfcd 343c 8432 283c
00000090: ae22 72bb 7975 19bc 34c1 69bc f84b 1d3c
000000a0: fa17 133c ce89 93bb a488 60bc ac34 223c
000000b0: 7f8f 163b 5ff3 ceb8 29e3 db3b 4c7d 74bb
000000c0: cb98 883c 37e1 59bc 61a5 a0bc c4cb a43a
000000d0: 989b ef3c f098 c7bb 5815 87bc df60 4f3c
000000e0: 2818 193d f8da 5a3c 7c37 d93b 0277 9b3c
000000f0: cade 0d3c d66a a63a 9e08 9fbb 8d78 5dbb
