release/arm64/movie_extractor.onnx (onnx, 126599 bytes, 3 tensors)

conv1.bias f4 [64]
00000000: 4af1 42bd c82e fa3c ff1e 723d 206b 17bc
00000010: dc42 18bc d453 17bd fe9d 5c3d d458 923d
00000020: 58a2 0e3d 0edf 68bd 022f d3bb ccb8 843d
00000030: 7889 bbbb 0ab8 d9bc 9841 263d f8f6 223d
00000040: 73ee 35bd a16a 083d 4a9d 1e3d d76d 2e3d
00000050: a502 29bd b0ff db3b 10eb d2bc 840d 86bd
00000060: af47 4d3d 1812 6fbc 58c9 893d 28b7 563d
00000070: 4582 043d a657 273d 9e6b bb3c cd72 973b
00000080: 8344 dd3c 236a 44bc d7e5 493d c69e 13bb
00000090: c27b e8bc f56f ed3c a01a 1a3d a240 97bc
000000a0: dbfb 833b 1798 00bc 0f69 a8bd 2c9d 99bd
000000b0: e633 aa3c 0aea cbbb 35e5 b63c da3b b73c
000000c0: 6449 05bd cad6 34bc fe99 0ebd 7481 95bc
000000d0: bd83 2bbd 3121 f5bb 9fc7 ef3b 6e42 f9bc
000000e0: 5978 573b 3217 4e3d a97d 433d aea8 14bc
000000f0: 5359 5e3c a22f 993c 26a8 66bd bd9a 453d
-0.047593392 0.030539885 0.05911159 -0.009241849 -0.009293284 -0.03694518 0.05386161 0.07145849
0.03482279 -0.056853347 -0.0064448128 0.0648056 -0.0057231747 -0.026577014 0.0405899 0.03978631
-0.044416856 0.033304814 0.03872422 0.04258522 -0.041262288 0.00671383 -0.025746852 -0.06545547
0.05011719 -0.014591716 0.067278564 0.052420765 0.032350797 0.040855072 0.022878464 0.0046218396
0.027010208 -0.011988196 0.049291458 -0.0022525056 -0.028379325 0.02898405 0.037623048 -0.018463437
0.0040278262 -0.007848761 -0.08223163 -0.07500681 0.0207767 -0.006222968 0.022326091 0.022367407
-0.032540694 -0.011037538 -0.034814827 -0.018250205 -0.041873682 -0.0074807634 0.007317498 -0.030427184
0.003287813 0.05031509 0.04772726 -0.0090734195 0.013571101 0.01869947 -0.056312703 0.048243273

norm1.weight f4 [64]
00000000: 156d 893f 7889 8a3f 31b2 863f 7aec 8b3f
00000010: 9b1f 893f 4ed3 873f a78b 863f 4bd6 893f
00000020: 4fd7 883f 7ffc 8d3f 0bf2 8b3f b40c 853f
00000030: cf3b 8f3f dc95 873f 0cb5 8a3f b6ab 873f
00000040: bb5e 853f df04 883f 2f7d 8a3f 6595 8a3f
00000050: b203 8c3f 2106 873f 5d46 893f e1a2 823f
00000060: f5aa 893f eb55 863f b47a 883f 6481 8e3f
00000070: 01b8 8b3f 5af3 8c3f 6d14 883f 1eaa 893f
00000080: 5ed5 8b3f 64b5 8c3f d782 873f 3613 8f3f
00000090: 7bed 853f a30e 873f 2768 883f 7cfe 863f
000000a0: 944b 873f 8fa6 833f 5545 823f a320 863f
000000b0: d708 833f 28d1 8a3f b21c 8f3f 5814 873f
000000c0: 426c 8e3f a3b0 843f eca0 883f d9a5 883f
000000d0: eb7d 893f aa71 883f af0e 8b3f a80d 873f
000000e0: 8263 8c3f b5c4 8a3f 0034 833f b259 883f
000000f0: 96fe 8a3f 3b53 933f 0979 873f 01da 833f
1.0736414 1.0823202 1.052313 1.0931542 1.071277 1.061136 1.0511369 1.0768522
1.0690707 1.1092681 1.0933241 1.0394502 1.1190127 1.0592608 1.0836501 1.0599277
1.0419534 1.0626487 1.0819453 1.0826842 1.0938628 1.0548745 1.0724598 1.0205957
1.0755297 1.049497 1.0662446 1.1133237 1.0915529 1.1011765 1.0631233 1.0755041
1.092449 1.0992856 1.0586804 1.1177738 1.0463098 1.0551342 1.0656785 1.0546412
1.056994 1.0285205 1.0177408 1.047871 1.0237073 1.084508 1.1180632 1.0553083
1.1126788 1.0366405 1.067411 1.0675613 1.0741552 1.0659688 1.0863856 1.0551043
1.0967867 1.084128 1.0250244 1.0652373 1.0858943 1.1509775 1.0583812 1.0300905

norm1.bias f4 [64]
00000000: ab12 dc3a 5862 ea3c 30b7 cc3b a2af c0bb
00000010: aebc 4d3c 85d6 5a3b 4306 92bc 65d7 4b3c
00000020: 6212 1dbc 3b1c 323b 3f3e 503c 2b2a 88bc
00000030: ec1c 9c3c 0357 b13c 35fd cc3c 310e 98bc
00000040: 8af1 39bc 2db0 9d3a 9163 1bbc 6369 6abc
00000050: e5d7 a93c 70d6 013c 2d93 153c d4a7 263b
00000060: 0ffd efbc 99c9 dc3c c564 d93b 88ce 52bc
00000070: e932 153b e48b 09bd 29b4 803b 2e3a 273c
00000080: 58d6 483c 5d0d c5bc 22b3 233b b918 0abc
00000090: 79dd 17bd 591f 463d 0a2b a7bc a399 9839
000000a0: 6a79 543b d583 c33b 0cf4 0fbd 19ae 1dbb
000000b0: 4227 323b 1122 473c 86bb e1bc 5c22 293c
000000c0: 2916 3b3c eb53 3a3c f345 33bb cd3b 4d3c
000000d0: 06ff 503c 8bf8 e53c 9a04 c7ba 9d43 1a3c
000000e0: d371 1f3c 2adf eebc ba4c abbc f8e8 823c
000000f0: 7ede 283c bbb2 98bc 3a5f 5ebb 6668 bebb
0.0016790231 0.028611347 0.0062474236 -0.005880312 0.012557192 0.0033392024 -0.017825251 0.012441491
-0.009586902 0.0027177471 0.012710153 -0.01662167 0.01905676 0.021647936 0.025023082 -0.018561454
-0.011349091 0.0012030654 -0.009484188 -0.014307353 0.02073283 0.007924661 0.009129328 0.0025429623
-0.029295472 0.026951598 0.006634327 -0.012866624 0.002276594 -0.033580676 0.0039277268 0.010206742
0.012258135 -0.024054224 0.0024978598 -0.008428746 -0.037076447 0.04836974 -0.020406265 0.00029106167
0.0032421001 0.0059666433 -0.03514485 -0.002406007 0.0027184044 0.012154118 -0.027555238 0.010323133
0.011418858 0.011372547 -0.0027354925 0.012526465 0.012756115 0.028072616 -0.0015183866 0.009415534
0.009731728 -0.029159147 -0.02091061 0.015980229 0.0103069525 -0.018639913 -0.0033931271 -0.005810785
