release/arm64/movie_extractor.onnx (onnx, 125577 bytes, 3 tensors)

conv1.bias f4 [64]
-0.04551803 0.03144407 0.06159371 -0.015121946 -0.009494694 -0.038059797 0.05640309 0.06642847
0.04437969 -0.05202669 -0.00068045984 0.06082234 -0.0021659846 -0.021163696 0.04178786 0.04582496
-0.04982293 0.03290581 0.039736636 0.040044263 -0.039148588 -0.004471169 -0.024282454 -0.06972724
0.04479755 -0.0055755326 0.06154236 0.037127227 0.039824966 0.03603295 0.030531226 0.012032964
0.04123214 -0.017694551 0.0575008 -0.0029890013 -0.02044708 0.035129994 0.027587207 -0.021939361
0.010123873 -0.015091281 -0.08542057 -0.08103847 0.025093678 -0.0022895467 0.020019518 0.019115333
-0.034831446 -0.012569058 -0.039757337 -0.02050025 -0.03764616 -0.0015192986 0.015955975 -0.032345824
-0.0067356033 0.046904605 0.04816398 -0.004001547 0.011499473 0.016125929 -0.054466397 0.041888304
00000000: 1d71 3abd 7fcb 003d b049 7c3d 0ac2 77bc
00000010: a28f 1bbc 97e4 1bbd ed06 673d a60b 883d
00000020: 7ac7 353d f019 55bd e360 32ba d920 793d
00000030: 31f3 0dbb 7d5f adbc bf29 2b3d f4b2 3b3d
00000040: 2113 4cbd 3ec8 063d e2c2 223d 7405 243d
00000050: 455a 20bd e282 92bb ffeb c6bc 28cd 8ebd
00000060: a37d 373d f5b2 b6bb d713 7c3d b812 183d
00000070: 811f 233d 4997 133d 9f1c fa3c e925 453c
00000080: 08e3 283d 2af4 90bc f585 6b3d 1fe3 43bb
00000090: a280 a7bc 78e4 0f3d 91fe e13c 2dba b3bc
000000a0: 9ade 253c 6c41 77bc fbf0 aebd 7ff7 a5bd
000000b0: 4291 cd3c 380c 16bb f9ff a33c c297 9c3c
000000c0: 6bab 0ebd 73ee 4dbc 97d8 22bd 24f0 a7bc
000000d0: dc32 1abd 3423 c7ba 1bb6 823c 0e7d 04bd
000000e0: 56b6 dcbb 0b1f 403d 9847 453d 691f 83bb
000000f0: 4968 3c3c 861a 843c 2818 5fbd 1293 2b3d

norm1.weight f4 [64]
1.0782636 1.0745952 1.0480094 1.0940704 1.0792674 1.0612688 1.0445112 1.0493128
1.0685763 1.1033112 1.0935335 1.0402514 1.1117198 1.0599473 1.0751116 1.0578549
1.0329571 1.0687296 1.0823414 1.0753561 1.0900536 1.0517976 1.0768878 1.0259166
1.0681437 1.0540377 1.0565996 1.0997478 1.082464 1.0912334 1.058766 1.0750874
1.0798053 1.1027117 1.053174 1.1172018 1.0448569 1.0537201 1.0656229 1.0477607
1.0624449 1.0317521 1.0193883 1.0495265 1.0318456 1.0783079 1.112705 1.0520415
1.1185446 1.0368875 1.0593104 1.0654104 1.075782 1.0656458 1.0784993 1.0422337
1.0927858 1.0766153 1.0289882 1.0603411 1.0764557 1.1440818 1.0618694 1.0370128
00000000: 8b04 8a3f 568c 893f 2c25 863f 800a 8c3f
00000010: 6f25 8a3f a8d7 873f 8bb2 853f e24f 863f
00000020: 1cc7 883f 4d39 8d3f e8f8 8b3f f526 853f
00000030: d64c 8e3f 5aac 873f 429d 893f ca67 873f
00000040: f037 843f 22cc 883f 2a8a 8a3f 45a5 893f
00000050: e086 8b3f 4ea1 863f 76d7 893f 3c51 833f
00000060: efb8 883f b5ea 863f a83e 873f 89c4 8c3f
00000070: 2e8e 8a3f 89ad 8b3f a585 873f 779c 893f
00000080: 0f37 8a3f a825 8d3f 68ce 863f 7800 8f3f
00000090: dfbd 853f 4de0 863f 5566 883f 061d 863f
000000a0: 32fe 873f 7410 843f 517b 823f e256 863f
000000b0: 8413 843f fe05 8a3f 1e6d 8e3f 4ca9 863f
000000c0: 782c 8f3f bbb8 843f 7c97 873f 5e5f 883f
000000d0: 39b3 893f 1567 883f 440c 8a3f ea67 853f
000000e0: 68e0 8b3f 88ce 893f e3b5 833f 42b9 873f
000000f0: 4dc9 893f 4671 923f 56eb 873f d6bc 843f

norm1.bias f4 [64]
0.0048554647 0.031469293 0.009558963 -0.012681412 0.011128582 0.0071748085 -0.020277733 0.013874933
-0.006917122 0.0080786515 0.016913697 -0.015018977 0.02624864 0.020210546 0.029136825 -0.017900873
-0.009188551 0.0017267847 -0.009206156 -0.019353397 0.025850287 0.010839773 0.009807346 -0.0032477644
-0.034445383 0.033617802 0.011348912 -0.021949755 0.00922203 -0.039247017 0.011100095 0.016325325
0.018823521 -0.03104215 0.008519754 -0.0100290105 -0.024813004 0.05414365 -0.027906522 -0.004490562
0.0092698345 6.787268e-05 -0.03835776 -0.009551956 0.008390287 0.01784315 -0.028958378 0.010468447
0.00967762 0.010191005 -0.0043689595 0.01234835 0.0152952345 0.034628645 0.0051163756 0.0065839193
0.0046067433 -0.035628382 -0.024863837 0.02235895 0.012261073 -0.021129647 0.0019947311 -0.013224654
00000000: 971a 9f3b f2e5 003d 329d 1c3c b2c5 4fbc
00000010: a854 363c a81a eb3b 7d1d a6bc b053 633c
00000020: 06a9 e2bb 525c 043c 988e 8a3c 2812 76bc
00000030: 6307 d73c 9690 a53c 5ab0 ee3c daa4 92bc
00000040: 948b 16bc 4855 e23a 6bd5 16bc 048b 9ebc
00000050: fbc3 d33c 4e99 313c feae 203c 72d8 54bb
00000060: 9a16 0dbd d2b2 093d c9f0 393c f9cf b3bc
00000070: ff17 173c 7bc1 20bd 2cdd 353c b0bc 853c
00000080: c933 9a3c 1b4c febc 7096 0b3c b850 24bc
00000090: a444 cbbc bbc5 5d3d 389c e4bc 9025 93bb
000000a0: 81e0 173c de56 8e38 071d 1dbd cf7f 1cbc
000000b0: 6a77 093c cc2b 923c 1f3a edbc d983 2b3c
000000c0: e18e 1e3c 2cf8 263c 7d29 8fbb bc50 4a3c
000000d0: dd98 7a3c c4d6 0d3d 45a7 a73b ebbd d73b
000000e0: 2af4 963b 11ef 11bd 3faf cbbc 1e2a b73c
000000f0: abe2 483c 1518 adbc 09ba 023b 38ac 58bc
