release/amd64/movie_extractor.onnx (onnx, 113434 bytes, 3 tensors)

conv1.bias f4 [64]
000000 6e a0 b3 3c 84 15 c5 3c 63 47 f0 3c 30 96 f8 3c
       0.021927085 0.024058111 0.029330915 0.030345052
000010 d2 1d 79 3d 48 f9 1d bc cd 43 0d bc ca 3c 49 bd
       0.060819454 -0.009641953 -0.008622122 -0.04913024
000020 51 bd 4f 3d f2 88 8c 3d c8 db 46 bd 45 fc 8f bd
       0.050717656 0.06862058 -0.048549443 -0.070305385
000030 7d 67 1f bd 12 68 57 3d 57 df 93 bc e4 90 86 3d
       -0.038917053 0.052589484 -0.018050833 0.065706044
000040 e4 d8 ba bc c7 09 6d 3c ed e6 b4 3b 7a 3d ea 3c
       -0.0228085 0.014467663 0.0055206926 0.028593767
000050 2d 63 3e 3d 12 ef bc bb 26 e1 31 bc 3a f4 09 3d
       0.0464813 -0.005765804 -0.010856902 0.03368018
000060 4c ff a8 3b 8f 14 25 3d 84 80 12 bd 37 27 82 3c
       0.005157387 0.04030281 -0.035767093 0.01588784
000070 d8 1d 91 bd 6f 17 5a 3b c1 90 7c bd 31 27 cd 3c
       -0.0708577 0.0033278128 -0.061661486 0.025043102
000080 e8 bb 90 3d 95 68 cb 3c bf 81 fb 3c a5 24 d3 bc
       0.0706709 0.024830142 0.030701516 -0.02577431
000090 4f 20 49 bd 4c ba b5 bc da d3 db bc 78 3a 5c bc
       -0.049103078 -0.02218356 -0.026834417 -0.013441674
0000a0 d6 a0 29 3d e1 cd 90 bd 06 f5 59 3d b8 cf 28 bd
       0.04141315 -0.07070518 0.05321219 -0.04121372
0000b0 8d 67 0b 3d 81 dc 41 3c 33 f0 34 bd 6d a9 8e 3d
       0.0340343 0.011832357 -0.044174384 0.06965909
0000c0 2e 9d 69 3d 48 db 37 3d c5 f3 02 3d e8 d0 0a bc
       0.057034664 0.044886857 0.031970758 -0.008472659
0000d0 c4 2f 3e 3d 43 17 94 bd cc be 68 3d 6b 96 91 bb
       0.04643227 -0.07230999 0.056822583 -0.00444298
0000e0 0c d9 f8 bb 52 96 80 3d 26 0f 00 bd e5 30 a1 3c
       -0.0075942334 0.06278671 -0.031264447 0.019676635
0000f0 9d 3f 06 be b4 54 3e bd 71 a7 c5 bd 78 95 79 bd
       -0.13110204 -0.046467498 -0.096510775 -0.06093356

norm1.weight f4 [64]
000000 e9 66 82 3f 5a 6f 89 3f 61 fa 93 3f 81 0d 90 3f
       1.0187656 1.0737107 1.1560785 1.1254121
000010 30 2f 86 3f a3 19 92 3f e7 c2 88 3f 45 79 95 3f
       1.048315 1.1414074 1.068448 1.1677634
000020 5f 1d 8d 3f 2c 24 89 3f 32 28 95 3f 7d 3a 90 3f
       1.1024588 1.0714164 1.1652892 1.1267849
000030 4f dc 88 3f 03 cc 88 3f b7 30 8d 3f 13 5c 8c 3f
       1.0692233 1.068726 1.1030492 1.0965599
000040 05 69 8e 3f f1 5f 88 3f 8c 29 8d 3f 5e 77 87 3f
       1.11258 1.0654279 1.1028304 1.0583303
000050 5e 96 8f 3f 72 76 8d 3f 7c ad 88 3f 8f 7c 86 3f
       1.1217763 1.1051772 1.0677943 1.0506762
000060 f9 7a 86 3f bc 88 90 3f cc 83 96 3f af 78 92 3f
       1.0506278 1.1291728 1.1758971 1.144308
000070 ab 5b 91 3f b3 f9 90 3f 6b 13 8f 3f 74 4b 8f 3f
       1.13561 1.1326202 1.1177801 1.1194901
000080 09 39 8c 3f 15 c7 8b 3f 89 9b 8a 3f bb cb 8a 3f
       1.0954906 1.092013 1.0828716 1.0843424
000090 62 f0 92 3f 4e 6d 8e 3f d9 5f 93 3f 81 53 86 3f
       1.1479609 1.1127107 1.1513625 1.0494233
0000a0 cc 27 90 3f 44 fb 8d 3f d5 17 92 3f 7a ca 8c 3f
       1.1262145 1.1092305 1.1413523 1.0999291
0000b0 11 2a 8e 3f c5 62 8a 3f f3 49 8a 3f 6e 66 88 3f
       1.1106588 1.0811392 1.0803818 1.0656259
0000c0 9b d9 82 3f 8c 7c 8f 3f 6b ba 8e 3f 06 3e 89 3f
       1.0222658 1.1209884 1.115064 1.0722053
0000d0 74 b0 8e 3f 49 5c 8e 3f 83 35 8a 3f cf a3 93 3f
       1.1147599 1.1121913 1.079758 1.1534365
0000e0 47 5b 8b 3f fb 69 8a 3f c1 e2 8a 3f 3e 6b 93 3f
       1.0887231 1.0813593 1.085045 1.1517103
0000f0 39 ff 8c 3f 3b 98 8d 3f b3 f6 9a 3f 21 b7 8b 3f
       1.1015388 1.1062082 1.2106537 1.0915262

norm1.bias f4 [64]
000000 fa fe cf b9 65 82 7d bd a8 a6 7a bd b0 6a 98 bd
       -0.0003967209 -0.061891932 -0.061194092 -0.07442224
000010 eb 1d bd bc 7a e9 09 3d 19 94 03 3d b7 e8 c2 bc
       -0.023085555 0.033669926 0.03212366 -0.023792608
000020 85 f9 59 bc d4 73 23 bc 97 be e5 bc 93 82 3c bd
       -0.013304119 -0.009976346 -0.028044982 -0.046022963
000030 9a 0f 77 b9 fc 68 03 bd 18 7a 34 3d fb 46 c3 bc
       -0.00023561568 -0.032082543 0.04406175 -0.023837557
000040 77 3e 13 3d b2 a7 7f 3a 55 64 5a 3d 0c 70 f0 bc
       0.035948243 0.00097524666 0.05331834 -0.029350303
000050 3d 5e 97 3b 9a 1a 96 3c a1 5e 3e 3d 92 29 37 bc
       0.0046193884 0.018323231 0.046476964 -0.011179345
000060 ed 4a e5 bc f1 00 00 3c 55 cd 17 3d a5 63 e6 3c
       -0.027989829 0.007812724 0.037061054 0.028123686
000070 c3 5d 2d 3d f5 bc 91 3c 04 0d d3 3c b4 af 2f 3d
       0.042325746 0.017790297 0.025763042 0.042892173
000080 1b 47 f7 bc 19 f3 66 3d 89 8d b8 bc 23 d3 76 3d
       -0.030185273 0.05638418 -0.022528427 0.06025995
000090 58 36 a4 3b 32 6a 2a 3d d9 e9 72 3c c5 bd 2e 3d
       0.005011361 0.041605182 0.014826261 0.042661447
0000a0 74 fb a4 3c 97 07 4f 3d 44 a4 73 bb bf 10 7b 3c
       0.020139433 0.050544348 -0.0037176767 0.015323817
0000b0 e5 20 66 3d 7c e8 8f 3d 1e a2 31 bd 66 da 84 bc
       0.056183714 0.07026765 -0.043367498 -0.016217422
0000c0 23 ca 32 3c 6d 4e 31 bb 1d d4 d6 bc 1b 94 29 3d
       0.010912451 -0.0027054802 -0.02622419 0.04140101
0000d0 0a ed 01 bd 6e 38 65 bc 8c ac 8a bd 96 bd 0a 3c
       -0.0317202 -0.013990505 -0.06771192 0.008468052
0000e0 2e cc e6 3c b9 66 31 bd ef ab 96 3d ca 60 06 bd
       0.028173532 -0.043310855 0.073570125 -0.03280715
0000f0 08 57 81 bd 0f 95 16 bd cb 9b 65 bd cf 0d 74 3c
       -0.06315428 -0.036763247 -0.05605678 0.01489587
